AI/final.tflite (tflite, 319420 bytes, 7 tensors)

sequential/dense/BiasAdd/ReadVariableOp f4 [32]
000000 ff 65 64 3e 06 2f 55 bd 95 48 27 3c 50 97 a7 3d
       0.22304533 -0.0520468 0.010210176 0.081831574
000010 bc 6e d5 3d 6b 7e e4 3d ef 4b 92 3d 0b 2b 5e 3d
       0.104215115 0.11156925 0.071433894 0.054240268
000020 f5 67 28 3e a0 1a ae bd 7d 64 3b 3e d4 91 cf 3d
       0.16445906 -0.08501172 0.18300052 0.101352364
000030 c8 6c 06 3e ea 83 d6 3d 2d 28 1b 3e 93 20 23 3e
       0.13127434 0.10474379 0.15152045 0.15930395
000040 27 50 1b bd ea f5 9f 3d 3d bb 59 bd b9 8b 69 bd
       -0.037918236 0.07810576 -0.05315708 -0.057018016
000050 67 21 33 3e 1f 5a 45 3e 91 33 f3 3d 0e 9a e8 3d
       0.1749321 0.1927266 0.1187507 0.113575086
000060 21 04 b3 3d 5f 4b 8a bd c1 51 88 3e 17 6c b9 3d
       0.08741022 -0.06752657 0.26624873 0.090538196
000070 5b 41 3e 3d 67 57 01 3e 9a 16 05 3e 18 7d 92 3c
       0.046449047 0.12630998 0.12996903 0.017881915

sequential/dense_1/BiasAdd/ReadVariableOp f4 [26]
000000 b3 0a c9 bd 75 87 2f bd 39 a8 1f bd 51 af e4 bc
       -0.09816494 -0.04285379 -0.03897879 -0.027915629
000010 e7 b9 ac bd ad 32 8f bc 52 7f 19 bd 0a 10 8f 3d
       -0.084338956 -0.017480219 -0.037474938 0.06985481
000020 a8 63 63 3c eb 0f 9b 3d 42 59 04 bd af bc 45 3d
       0.01387874 0.075713955 -0.032311685 0.048275646
000030 91 11 46 be f1 5f 82 3c 8e f9 0b bc e1 2d 19 bb
       -0.19342639 0.015914889 -0.008543385 -0.0023373293
000040 ef d1 c0 3c e0 de 34 bb 30 ec 2a 3e 7a 86 0d bd
       0.023537604 -0.0027598664 0.16691661 -0.034552075
000050 5d bc 61 3d ed 81 81 be e8 11 b7 3d 32 da f0 bd
       0.055111278 -0.25294438 0.08938962 -0.117603675
000060 c5 02 8b 3e c7 db ac 3d
       0.2715055 0.08440357

sequential/dense/MatMul f4 [32, 64]
000000 61 b8 12 3e c4 ad 25 3b b6 ad bb 3d 34 43 69 3e
       0.14328147 0.0025280574 0.09163992 0.22779542
000010 60 6d 45 be 17 ad 9e be 88 bc 93 3d 2f 79 a3 3e
       -0.19280005 -0.30991432 0.07213694 0.31928393
000020 2b ea 06 3c 72 dc 3a be 4d 34 a2 be af bc 1a be
       0.008234541 -0.18248156 -0.31680527 -0.1511104
000030 af 48 63 3e b8 38 ca 3e b5 bd 34 be 96 98 7f be
       0.22195695 0.39496398 -0.17650492 -0.2496055
000040 04 d0 d1 bc c3 ae b8 3e 38 85 80 bd 3e 91 9e 3e
       -0.025611885 0.36070833 -0.062754095 0.30970186
000050 66 5d cf 3d 4b 10 8d be 0d 28 be 3e 30 95 30 3d
       0.10125236 -0.27551493 0.3713993 0.043111026
000060 7a ce 7e bd 57 a0 a6 3d c1 85 4e bd e8 9f 5e 3d
       -0.06220863 0.08136051 -0.050420526 0.054351717
000070 fc 7e a6 bc ea aa ce bc 35 d9 36 3e d2 f9 b9 3e
       -0.020324223 -0.025227983 0.17856295 0.3632341
000080 db 8a 7a be c6 f5 24 3d ef 19 46 3d 62 b8 16 3e
       -0.24467032 0.04027345 0.048364576 0.14718774
000090 fe d1 c9 bd 8c c7 c6 be 7d 0c 0b be bc db 0c 3e
       -0.09854506 -0.38824117 -0.13578983 0.13755697
0000a0 4a b2 a8 3e 23 a0 6c 3d 8f de 99 3c 96 fc d5 3c
       0.32948524 0.057769906 0.018782882 0.026121419
0000b0 48 ed 09 be 8e 1a 18 be 43 f3 35 be 6e 6f be be
       -0.13469422 -0.1485388 -0.17768578 -0.3719439
0000c0 89 6a e8 bc 92 b0 81 3d 44 7c 5b bc 63 7a 6e be
       -0.028371112 0.06332506 -0.013396326 -0.23288874
0000d0 1b 4a 43 3e 60 8c ef bd f6 72 00 3e 36 81 27 be
       0.19071238 -0.11696696 0.12543854 -0.16357884
0000e0 f2 d9 2e 3e 6d 29 37 be ea d4 20 3e f3 4c b2 bd
       0.17075327 -0.17886896 0.1570622 -0.08706083
0000f0 77 b0 39 be 55 94 69 3e 41 4d 94 bd 58 bf 3e 3d
       -0.18133722 0.2281049 -0.072412975 0.0465692
000100 a0 e5 fd bd 6f 1f b4 bd 83 68 dc bd 5d ce 45 3e
       -0.12397313 -0.08795058 -0.107621215 0.19317003
000110 79 85 0c be 90 22 38 be 6b 33 0c 3e d7 ce 4e be
       -0.13722791 -0.17981935 0.1369149 -0.2019609
000120 a4 fd 9f 3d b8 89 50 be b1 fa 39 be be 94 00 be
       0.0781205 -0.20365036 -0.18162037 -0.1255674
000130 e8 31 28 3e 85 ed 61 3e 13 b3 f4 bc d6 b5 1b be
       0.16425288 0.22063263 -0.029870545 -0.15206084
000140 38 3e 60 be ea a5 3a bd f4 b7 57 be 1d 38 60 3e
       -0.21898735 -0.045568384 -0.21066266 0.21896406
000150 57 9f fb 3d 5c 85 76 be 90 83 68 3b 7d 14 e6 bd
       0.12286251 -0.2407431 0.0035478808 -0.112343766
000160 18 93 4b be d9 24 e8 3d 27 45 91 be 42 64 1b 3d
       -0.1988033 0.11335153 -0.28373072 0.03793741
000170 12 06 30 3e d9 82 2c 3e 89 0f 18 be df c1 3c bc
       0.17189816 0.1684679 -0.14849676 -0.011520832
000180 83 32 c7 3d a5 74 19 be 75 cb 50 be fd 62 10 be
       0.09726431 -0.14985903 -0.20390113 -0.14100261
000190 0d b5 41 3d c6 5e 38 bd db 56 3a be 3f 95 40 be
       0.047291804 -0.045012258 -0.18197195 -0.18806933
0001a0 4a 17 8b 3d 70 99 9a be b7 9d f5 3c b4 fd 18 3e
       0.067915514 -0.3019519 0.02998243 0.1494053
0001b0 d9 13 13 bd b1 f8 fd 3d 1b c1 35 3e 2b 96 e3 3c
       -0.0359076 0.1240095 0.17749445 0.027781567
0001c0 9d e5 35 3e 9c 01 de bd 68 0f 41 3e 48 74 30 39
       0.17763372 -0.10840151 0.18853533 0.00016827986
0001d0 b6 57 d6 3d 80 c4 26 3d 2a 88 17 be 28 85 f8 bd
       0.10465948 0.04071474 -0.14798036 -0.121347725
0001e0 0f c7 82 bd 0b 4f b4 3d 2e 11 88 be 2f 15 60 be
       -0.06385624 0.08804139 -0.26575607 -0.21883081
0001f0 12 d3 9d bc 9b 7f be bd 55 e8 6d be ae 07 ab bd
       -0.019265685 -0.093016826 -0.23233159 -0.08351074
000200 18 70 40 bd bd 46 72 3e 14 0e b1 3d 3b 75 3b 3d
       -0.0469819 0.23659797 0.08645263 0.045766097
000210 9e 20 52 be 86 14 2f be 12 dc 93 be f5 d1 cf 3c
       -0.20520255 -0.17097673 -0.28878838 0.02536867
000220 77 18 ca 3e e3 98 b2 bd 92 94 37 3e 07 dc a0 bc
       0.3947179 -0.08720567 0.17927769 -0.019636167
000230 cb 12 0b bd 6a 25 34 3e 15 a6 65 3e fe ca d4 3c
       -0.03395347 0.17592397 0.22426637 0.0259757
000240 ba 33 d5 bd 54 66 8c 3e 1d 45 74 3d 1d 9c ef bd
       -0.10410257 0.2742182 0.059636224 -0.11699698
000250 94 9a 22 3d 52 9f 8b bc 71 ec 46 3d 9d 7f 51 3d
       0.0396982 -0.017043743 0.04856533 0.051147092
000260 d6 7b d5 3d fc 1b 1d 3e ed 80 47 bd 32 5e 4e be
       0.104240105 0.15342706 -0.048706938 -0.2015312
000270 f6 58 23 bd 97 19 35 3e 36 50 dd bd c5 d5 77 3e
       -0.03987976 0.17685543 -0.10806315 0.2420264
000280 cf 28 1c be dd fd 7a 3e be aa 5a 3d 8f e3 9f bd
       -0.15249942 0.24510904 0.05338549 -0.07807075
000290 86 63 9b 3e d9 82 58 bd f2 3b 30 bd d3 81 1b be
       0.30349368 -0.05285916 -0.04302592 -0.15186243
0002a0 9a c5 2b bc cc 1b 7f be 4b 48 67 3d 60 b1 82 3e
       -0.010484124 -0.24912947 0.05646543 0.2552595
0002b0 af ff 74 bd ab 63 13 3e 3f f7 bb 3e 3b 0f e7 bd
       -0.05981415 0.14393489 0.3671207 -0.11282202
0002c0 a9 35 be 3b b2 34 85 3e 8a b1 33 be 54 72 b2 3e
       0.0058047366 0.26016766 -0.17548195 0.3485285
0002d0 14 a7 24 3c 56 08 1e 3c 36 b0 c9 3c 25 91 21 be
       0.0100496 0.009645542 0.024620157 -0.15778024
0002e0 f3 9c 0d be 43 2f 2b be b7 06 0c bc c3 a5 b1 3e
       -0.13829403 -0.16717248 -0.008546523 0.3469678
0002f0 f3 cb ab 3d a8 00 14 be 0e 58 5c be 28 6a 8a 3d
       0.083885096 -0.14453375 -0.21517965 0.06758529
000300 b3 03 95 be fa 9b 15 be ad 3f 23 be a4 dd 7a bd
       -0.29104385 -0.14610282 -0.15942259 -0.06124653
000310 dc 6b 83 3e 89 84 35 3e 85 56 6c bd c4 36 e9 be
       0.25668228 0.1772634 -0.0576997 -0.45549595
000320 f5 71 b6 bd 21 93 39 bc db 11 e3 3d bd cc d7 bd
       -0.08908454 -0.011326582 0.1108739 -0.105370976
000330 02 ff 26 bd 08 75 4e 3e a2 ab 55 bb 90 46 85 3e
       -0.04077054 0.20161831 -0.0032603522 0.26030397
000340 32 40 1c be 7d e3 8c bd 5c c7 81 3e da 45 fd 3c
       -0.15258864 -0.068793274 0.25347412 0.030917097
000350 d4 8e bb bd 6c 3d d8 bb f3 d8 ec 3d 4c 9c d3 3d
       -0.09158102 -0.006599119 0.11564817 0.10332546
000360 e6 5d 63 3e 23 db a4 3d 41 15 a3 3d d7 76 f7 bd
       0.22203788 0.080496095 0.07963038 -0.12083214
000370 f5 c1 1f 3e 1f c8 d2 bc 94 13 d0 bd a1 ab f5 3c
       0.15601332 -0.02573019 -0.10159984 0.029989066
000380 ef 99 d1 be 5a 65 ec 3c da 40 03 bd 8f 4c 81 be
       -0.40937755 0.028856922 -0.03204427 -0.25253722
000390 d2 b8 a2 3d e5 d7 95 bd 22 1f 65 be db 0b 82 be
       0.07945408 -0.07316569 -0.22375157 -0.2539967
0003a0 b9 7d 9e 3d 31 87 0a 3e 09 42 c1 bd 6c 40 8f 3c
       0.077388234 0.13528134 -0.09436423 0.017486773
0003b0 63 ea 78 be f6 b0 25 3e 8e 46 9e 3d 3a bd a4 3d
       -0.24308161 0.16180786 0.07728301 0.080439046
0003c0 c5 43 00 be 32 dd 4b be 81 18 d4 3d 1c 94 c1 bc
       -0.12525852 -0.19908598 0.10356236 -0.023630194
0003d0 32 47 bc be 26 8b d6 bd dc 99 01 3d 32 c0 08 be
       -0.36773068 -0.10475759 0.031640872 -0.13354567
0003e0 e4 d2 f2 3d f3 74 aa ba 77 27 af bd 69 32 63 be
       0.118566304 -0.0013004824 -0.08552449 -0.22187199
0003f0 34 21 9f 3e 79 dd 68 3e bf 68 07 3d e7 b5 da 3d
       0.3108002 0.22740735 0.033058878 0.10679226

sequential/dense_1/MatMul f4 [26, 32]
000000 86 8f 19 bf d5 0f 83 be 4c b5 91 be e8 75 9a be
       -0.59984624 -0.25598016 -0.2845863 -0.3016808
000010 6a 45 c0 3c e6 30 d0 bd f4 a1 0e 3e 74 49 1c be
       0.0234706 -0.10165577 0.13928968 -0.15262395
000020 4b 9f 3f 3e 0e f4 7e be f8 bf 67 be 2e 42 ac be
       0.18713109 -0.24897787 -0.22631824 -0.3364424
000030 6f 51 5b 3e da 11 cb be 1c 96 a1 bd 0c 6f 02 bf
       0.21417783 -0.39662057 -0.07889959 -0.50950694
000040 41 44 85 bd db f8 a1 3e cd e2 b6 3e 93 bc 18 3b
       -0.06507159 0.31635174 0.3571991 0.0023305758
000050 69 f0 bf 3e 21 24 ba 3d e6 80 65 be 47 a4 22 be
       0.37488106 0.09088922 -0.22412452 -0.1588298
000060 23 c5 d5 be 6d 23 d7 be fd a9 be 3d c6 c4 b1 3e
       -0.41751966 -0.42019215 0.093097664 0.3472044
000070 8f c7 82 3d e4 a9 70 bf a1 65 6c 3e f7 76 d0 be
       0.06385719 -0.9400923 0.23085643 -0.40715763
000080 64 40 b6 bd 7c b4 73 3e 3a d0 f5 3d 7e 8a ac bd
       -0.08899 0.23799318 0.12002607 -0.08424853
000090 ab 68 a4 3e 31 48 7a be 88 2a 60 3e 0a 00 88 3e
       0.32111105 -0.24441601 0.21891224 0.2656253
0000a0 5a 02 92 be 08 eb 86 bd 72 92 9c bd 55 1f e9 be
       -0.2851742 -0.065877974 -0.0764512 -0.45531717
0000b0 c7 66 cf bd bc 90 ad 3c 60 38 97 3d c5 d2 6b 3e
       -0.10127025 0.021187179 0.073837996 0.23029621
0000c0 ab ac 6c bd ad 8e 8b 3e 36 10 a7 bd cd d9 dc be
       -0.057781857 0.2725729 -0.08157389 -0.4313492
0000d0 cc 9a 28 3e 9c 2a 84 be 80 ce be 3c 90 f0 6f 3e
       0.164653 -0.25813758 0.023291826 0.23431611
0000e0 80 93 46 be 38 4c f7 3d a7 41 7c be 21 f5 f7 be
       -0.19392204 0.120750844 -0.2463442 -0.48429206
0000f0 9e 75 ec be af fc 38 3e fc 30 d7 3c 36 55 3b bf
       -0.46183485 0.18065141 0.026268475 -0.73176897
000100 ec 87 8f be 7b e6 35 be c5 29 19 3e cb 68 45 3e
       -0.28033388 -0.17763703 0.1495734 0.19278257
000110 b4 08 ae 3e 23 8b 90 be 21 6e d0 be 6b 89 b5 3e
       0.33991015 -0.28231153 -0.40709022 0.35456404
000120 44 f1 67 be 4a e3 30 be b9 8d 92 be fd 34 9d be
       -0.2265063 -0.17274204 -0.2862375 -0.3070449
000130 5b d3 ab bd 93 c3 01 3e 4d 30 29 be 75 83 6f 3e
       -0.08389922 0.12672262 -0.16522332 0.2338999
000140 14 cc 3b be 8c 9e 99 3e 17 f7 5a 3e 17 b6 ff be
       -0.18339568 0.30003774 0.2138332 -0.4994361
000150 54 bd 98 bc 03 9d 94 be bb 04 ca be f8 37 b2 bc
       -0.018644966 -0.2902604 -0.39456734 -0.021755204
000160 0d 4f fa 3c 3d ff 5f 3e 64 87 2f bf 0b 41 4b be
       0.030555272 0.2187471 -0.68565965 -0.1984903
000170 b9 e9 ae be bb a8 ab be 5c 59 08 be 76 b8 67 bf
       -0.3416269 -0.3352717 -0.13315338 -0.9051584
000180 d9 41 75 3d 2a eb fe bd df 98 a6 3e e5 44 4d be
       0.05987725 -0.12447198 0.32538506 -0.20045812
000190 e1 95 07 be b5 86 53 3e 30 ac 8e be 7e b4 48 be
       -0.13240768 0.20656855 -0.27865744 -0.19600102
0001a0 79 b7 03 bf b8 74 50 bd ff 61 a1 3e 3a 3d 05 3e
       -0.5145183 -0.05089256 0.31520078 0.13011637
0001b0 0a 2d 85 be a2 30 81 bd 58 86 c9 be 11 e9 ce 3e
       -0.26010925 -0.06308104 -0.3936031 0.4041219
0001c0 96 66 50 be f9 db da be 56 06 33 3e 82 e4 88 3e
       -0.20351633 -0.4274595 0.17482886 0.26736838
0001d0 21 fc e2 be 3c 47 90 be 17 a2 09 bf e5 e3 71 3d
       -0.44332984 -0.28179348 -0.53762954 0.059055228
0001e0 7b fe 2d bf 15 a4 0e bf 96 70 50 be db 7a 88 be
       -0.6796643 -0.5571912 -0.20355448 -0.2665623
0001f0 20 47 1d 3e 9d 5b 1f bd 64 ad b2 be 7c 4f 4c 3e
       0.15359163 -0.03890573 -0.34897912 0.19952196
000200 3c 69 4a 3e 94 4d 63 bb 61 12 53 3e 0f ae d5 be
       0.19766706 -0.0034683691 0.2061248 -0.4173436
000210 cb bf 25 3e ad cf a3 bd f2 7e 8f 3e 76 33 60 be
       0.16186444 -0.079985954 0.2802654 -0.21894631
000220 1f 4c 34 be 0e c2 98 be 9c 7d 85 3e 73 e0 67 3e
       -0.17607163 -0.29835552 0.26072395 0.22644214
000230 39 a9 b4 3d 8c cb 60 3e ed ff c2 be cb d3 3f 3e
       0.08821339 0.21952647 -0.3808588 0.18733136
000240 2e 7f 90 be ef f6 bb be d7 0b d2 bd 3c 04 95 3e
       -0.2822203 -0.36711833 -0.102561645 0.29104793
000250 d6 7e 2c be 6c cb d1 bd 00 48 c3 be 4c 6f b0 be
       -0.16845259 -0.10243878 -0.3814087 -0.34459913
000260 c8 7a 96 be 7a 7a e7 be 38 b7 82 be c8 d2 70 be
       -0.2939055 -0.4521063 -0.2553041 -0.23517907
000270 cf fe ea bd 30 41 53 3d a9 33 27 bf 6e f4 96 bd
       -0.11474382 0.05157584 -0.653132 -0.0737084
000280 42 cf 55 3e f7 05 53 3e e7 c8 03 be f7 a4 0d be
       0.20879844 0.20607744 -0.12869607 -0.1383246
000290 8e ed 87 be 89 84 41 bf 48 eb 0c 3e b6 ff 5d 3e
       -0.26548427 -0.7559286 0.13761628 0.21679577
0002a0 99 f5 2d 3e b0 e4 36 3e b3 cc 2f 3d fd a3 e9 3d
       0.1698822 0.17860675 0.042919826 0.114082314
0002b0 1a 74 d0 be 0f 0a ff be 3f 05 c2 be 86 5a b5 be
       -0.40713578 -0.49812362 -0.37894627 -0.35420626
0002c0 50 6d 89 3e f9 5a 15 bf ae 13 28 3e a6 75 a1 3e
       0.2684121 -0.5834194 0.16413757 0.3153507
0002d0 79 ae 02 bf 4d 8f aa be f8 b6 d1 bd 1f 35 de be
       -0.51047474 -0.33312455 -0.10239977 -0.43399903
0002e0 0e 77 46 bf 88 d3 bd 3d 10 f5 57 bf 84 86 6f 3d
       -0.77525413 0.09268862 -0.8435831 0.058477893
0002f0 5f e9 81 3d df 8a 2c bf 09 d6 58 3c ab c6 3f 3e
       0.0634334 -0.673994 0.013234624 0.1872813
000300 96 08 0e bf 8e 88 0f 3e e1 27 ce 3d 73 36 5b be
       -0.5548185 0.14016935 0.100662 -0.2140749
000310 93 34 0a 3c 07 40 52 3e 78 dc 7b 3d ba f1 38 3e
       0.008435386 0.20532237 0.061489552 0.18060961
000320 91 10 97 be e0 17 e5 be 30 b7 af bc bf ff 1c bf
       -0.29504827 -0.44744778 -0.021449655 -0.6132774
000330 68 fb 85 3d 54 46 4f bf 04 f9 2a bd 9a ec 31 b9
       0.065420926 -0.8096669 -0.041741386 -0.00016968176
000340 cd c3 15 3e cc cc 31 3e 19 f7 9c 3e f6 12 92 bd
       0.14625473 0.1736328 0.3065727 -0.07132523
000350 36 cd 06 be 3b c3 90 3e 23 99 94 be e9 b9 b8 bd
       -0.1316422 0.2827395 -0.29023084 -0.090198345
000360 77 c3 61 be 04 c4 e0 bd d8 81 84 3e a1 81 81 3e
       -0.2204722 -0.10974887 0.25880313 0.25294212
000370 f5 12 89 be 61 8b e5 3d 2c 92 d3 be bb 25 87 3e
       -0.26772276 0.11208225 -0.41322458 0.26395974
000380 63 29 13 bf c7 26 09 bd 19 21 4d be 97 6b 14 3e
       -0.57485026 -0.033484247 -0.20032157 0.14494167
000390 82 32 4a 3e bf 11 37 3d c0 cc 1c 3e 1b 6e 93 3e
       0.1974583 0.04469466 0.15312481 0.2879494
0003a0 30 08 23 be 99 95 c7 3d 09 02 90 3e 60 84 dd be
       -0.15921092 0.0974533 0.28126553 -0.43265057
0003b0 5d ad a2 3d 9d 00 9d be 36 82 4f 3e 6c bc 8b be
       0.07943223 -0.3066453 0.20264515 -0.27292192
0003c0 65 1e 5a 3d c5 32 2d be 3d 61 90 be fd bc 2f be
       0.053251643 -0.16913898 -0.28199187 -0.17161937
0003d0 70 c7 8f 3d 29 ab 3e 3d 9e 2d 06 3e e7 fe 5b 3e
       0.070204616 0.04654995 0.13103339 0.21483956
0003e0 5e bf a4 be c3 cd 8e be ca 9c 91 3e 23 a5 4d be
       -0.32177252 -0.2789136 0.28439933 -0.20082526
0003f0 cd dd 1d be 36 b5 2f be e2 a4 15 be a6 e5 65 be
       -0.15416642 -0.1715897 -0.14613679 -0.22450885

sequential/lstm/while/lstm_cell/BiasAdd/ReadVariableOp f4 [256]
000000 30 b6 ff bb 2a c5 5c 3c 58 ca bb 3c 2e eb 23 bd
       -0.007803701 0.013474742 0.022923633 -0.040019207
000010 3c 7f 80 bc 8a 18 84 bc 7e 07 b8 bc cd 82 0c ba
       -0.01568567 -0.016124982 -0.02246451 -0.0005360067
000020 77 84 d9 ba 8d 12 cd bb 0d c7 1a bc 56 be 44 bb
       -0.0016595264 -0.006258315 -0.0094468715 -0.0030020676
000030 46 f3 e4 bc 76 45 32 bb 63 d8 ee bc 4b e4 c9 3b
       -0.027948033 -0.0027202046 -0.029155916 0.006161248
000040 59 70 61 bc a1 d9 c4 3c 43 57 05 bd 99 93 38 3c
       -0.013759696 0.024029555 -0.032553922 0.011265659
000050 d2 76 26 bd 48 5f 78 bc e6 c2 00 bd b8 b5 74 bc
       -0.04064066 -0.015159436 -0.03143587 -0.014935903
000060 f0 ec 53 bd 89 bb bb bc 53 62 c6 bc 30 93 43 bd
       -0.051739633 -0.022916572 -0.024216807 -0.04774779
000070 f9 cd 15 bd ba 9c 2e bd c6 d7 48 bb 35 84 98 bb
       -0.036573384 -0.042629935 -0.003064619 -0.004654432
000080 20 eb fd 3c bb f1 92 bc 9b ca 1e bc 3f 69 9e 3c
       0.030995905 -0.017937532 -0.00969186 0.019337295
000090 63 ec e5 bb 81 e1 0c bd e9 44 7a bd 1c 6e 1d 3a
       -0.007016705 -0.034394745 -0.061100874 0.0006005482
0000a0 e6 96 4a ba a8 2e 4a 3a c3 0a 10 bc 6f 0a 3c bd
       -0.0007728174 0.0007712641 -0.008791628 -0.045908388
0000b0 1b df d0 bc cb 18 f9 b9 45 6d 06 bd 86 ab a3 3d
       -0.02549701 -0.00047511453 -0.03281905 0.079917
0000c0 72 6c 09 bd 60 26 1e bc 58 8b 38 bc 7f a5 92 bc
       -0.033550687 -0.009652704 -0.011263691 -0.01790118
0000d0 8c 99 e7 3b 6b 6d 40 bd b3 b8 c5 bc 51 6b 6a bc
       0.0070678648 -0.04697935 -0.024135923 -0.014307813
0000e0 9d 3f 18 bd d4 8e 97 bc 36 62 f0 bc 4c 3b f4 ba
       -0.03717004 -0.018500723 -0.029343706 -0.0018633395
0000f0 21 7b 46 3b e9 41 e3 3b ec 65 5b bd 28 53 34 bb
       0.0030285793 0.0069353473 -0.053563997 -0.0027515385
000100 c3 36 77 3f 72 93 83 3f ec e1 7c 3f fd 76 74 3f
       0.96567935 1.0279372 0.9878223 0.9549406
000110 92 93 7d 3f a8 3e 7e 3f 86 5b 82 3f 20 12 86 3f
       0.990533 0.99314356 1.0184181 1.0474281
000120 82 73 85 3f 1e 1e 80 3f 49 95 81 3f 02 f0 77 3f
       1.0425875 1.0009191 1.0123683 0.968506
000130 73 6f 6b 3f 2d 49 7c 3f 8e 18 77 3f 50 76 7d 3f
       0.91966933 0.9854916 0.9652184 0.99008656
000140 0c bd 7d 3f 47 23 82 3f 94 a6 83 3f c2 80 80 3f
       0.9911659 1.0167016 1.0285211 1.0039294
000150 c4 37 76 3f a3 4b 86 3f b1 11 6e 3f 60 93 7b 3f
       0.9617884 1.0491832 0.92995745 0.9827175
000160 22 8e 81 3f fc 50 70 3f 1f 80 88 3f 68 83 7d 3f
       1.01215 0.9387357 1.06641 0.99028635
000170 8f 6c 78 3f 1d ec 7c 3f 17 db 7d 3f 41 61 7c 3f
       0.9704065 0.9879778 0.9916243 0.985859
000180 3c 31 85 3f 35 39 85 3f 98 ba 80 3f d5 e7 88 3f
       1.040565 1.0408083 1.0056944 1.069575
000190 3c e5 7d 3f 6e fc 78 3f 8c 8b 77 3f 49 5c 82 3f
       0.9917791 0.9726018 0.96697307 1.0184413
0001a0 e0 c1 80 3f cc f2 85 3f ed b1 7a 3f 5f 48 7a 3f
       1.0059166 1.0464721 0.97927743 0.9776668
0001b0 4b 87 78 3f da 2d 82 3f 5c 57 71 3f 22 84 6e 3f
       0.9708144 1.0170243 0.94273925 0.9317037
0001c0 84 46 72 3f 0e 9a 78 3f 4c 10 7e 3f 97 3e 81 3f
       0.9463885 0.9711007 0.9924362 1.0097226
0001d0 d9 b7 84 3f 75 1d 75 3f e7 67 80 3f 32 9e 7c 3f
       1.0368606 0.9574807 1.0031708 0.98678887
0001e0 c6 7a 79 3f 55 bf 84 3f 8a 80 82 3f 0f cc 7f 3f
       0.9745296 1.037089 1.0195477 0.99920744
0001f0 f1 48 7d 3f d8 75 82 3f b3 dc 75 3f 75 8e 80 3f
       0.98939425 1.0192213 0.96039885 1.0043474
000200 d6 ea 98 bc 05 cd f4 3b 72 32 68 bb 43 6e d4 bc
       -0.018666666 0.0074707293 -0.0035430458 -0.025931483
000210 8d 7c bd bc ae e9 c3 3a 89 7e 53 3c b7 7c ea 3b
       -0.02313068 0.0014946961 0.012908586 0.0071559804
000220 7d ae a4 bb 3f a1 01 bd ec b2 d1 bc 4b 97 02 3d
       -0.0050256834 -0.031647917 -0.025598012 0.031882565
000230 78 89 81 bd 19 9d 2a bb c2 a1 16 bd 64 9b 15 bd
       -0.06325048 -0.002603358 -0.036775358 -0.036525145
000240 d1 a6 8d bc 4f b5 e0 3c 1d e6 8e 3b bf 19 1d bd
       -0.017291458 0.027430205 0.0043609277 -0.03835463
000250 fd 7e 0e bd 54 ae 83 3a e4 27 93 bc 67 c6 8a bc
       -0.034789074 0.0010046461 -0.017963357 -0.016940309
000260 04 f1 bc bc 84 15 89 bc 89 4a 57 bb 15 40 0e bc
       -0.023064144 -0.016733892 -0.0032850823 -0.0086822705
000270 26 b4 00 bc c7 07 3a bd 09 37 ad bc bd e1 3e 3c
       -0.007855451 -0.045417573 -0.021144407 0.0116505
000280 5a 87 91 3c 1c 99 ac bc 24 5f 8b bb 02 c0 d3 3b
       0.017764736 -0.021069102 -0.004253285 0.006462098
000290 b9 ba c1 bc 5c 18 b0 bc d3 8d df bb 42 18 e5 bb
       -0.023648607 -0.02149599 -0.0068223267 -0.006991417
0002a0 2c 72 39 bc e8 06 04 bc cd cf 45 3c 75 5f 9f bc
       -0.011318725 -0.008058287 0.012073469 -0.019454697
0002b0 01 a9 ad bc d2 51 c8 bc 4d 48 b7 bc d2 71 be 3c
       -0.021198751 -0.024453077 -0.022373343 0.023247633
0002c0 24 a1 b4 bc 46 f4 5f 3c 24 6a 37 bc 8e 81 d4 bc
       -0.022049494 0.013669079 -0.0111947395 -0.025940683
0002d0 d6 c6 84 bc f1 a5 44 bd cb 12 f1 bc 85 15 18 bd
       -0.016208094 -0.048009817 -0.029427906 -0.037129898
0002e0 58 d9 51 bd 19 f7 11 3c ea ab 0f bd 65 24 da bc
       -0.051232666 0.00890901 -0.03507606 -0.026628682
0002f0 47 1a 6f 3c 75 83 09 3d 6b 32 86 bc 74 b5 8f 3c
       0.014593667 0.033572633 -0.016381463 0.017542578
000300 9f 4f d1 3c c7 eb 92 3b 08 db fc bc 66 c7 0d bd
       0.025550662 0.0044836733 -0.030866161 -0.03461399
000310 2e 5f f1 bb 8f 8f 47 ba d9 90 c9 bc 35 df ff bb
       -0.0073660826 -0.00076126395 -0.024605202 -0.007808591
000320 e5 a5 65 3c 21 9d 1b bb 85 b3 98 bc d8 c6 1b 3c
       0.014016603 -0.002374478 -0.01864029 0.009507857
000330 8e 6f 56 bd 55 e3 11 3d ce 8b 03 bd 2b cd 52 bc
       -0.05235248 0.03561719 -0.03211575 -0.012866299
000340 5c 02 49 bc c1 f0 29 bb 58 f9 00 bd 94 20 fb 3b
       -0.012268629 -0.0025930854 -0.031487793 0.0076637957
000350 85 9d 5e bb d7 b2 0c bc 17 1d 00 bc a1 35 2a 3d
       -0.00339684 -0.008587561 -0.007819436 0.04155505
000360 b4 94 c9 bc 80 65 97 bc 93 ad 86 bc d8 72 8f bb
       -0.02460704 -0.018481016 -0.016440189 -0.004377704
000370 37 68 3d bd 85 97 dd bc 12 d3 8a ba 6f 45 60 bc
       -0.046241965 -0.02704979 -0.0010591468 -0.013688429
000380 05 a7 a4 bc b0 b2 15 ba 57 8c 9b 3c e9 ff cb 3c
       -0.020099172 -0.00057105254 0.018987818 0.0249023
000390 2a d1 1b 3c 08 05 24 bb ba 78 e7 bc 2c c5 6b 3d
       0.009510318 -0.0025027413 -0.02825581 0.057561085
0003a0 44 91 28 bc b9 04 c0 3c 77 b2 08 3d 61 6d fa 3b
       -0.01028854 0.023439752 0.033373322 0.0076424335
0003b0 a0 18 d2 bc 02 f2 07 3d de ae db bc 70 14 10 3d
       -0.025646508 0.03318978 -0.026816782 0.03517574
0003c0 ee 1a b1 b6 10 fd ac bc 72 ae 32 bc 5f 96 a7 3b
       -5.278146e-06 -0.021116763 -0.010905849 0.005114361
0003d0 8a d9 6f bb 9b c1 0b bc ac 3b be bc 15 6b 95 bc
       -0.003659817 -0.008530046 -0.023221813 -0.018239537
0003e0 d1 c3 fe bc 05 78 2b 3d c6 92 2b bc c1 25 d9 bc
       -0.031099232 0.041862506 -0.010472005 -0.02650726
0003f0 4d d5 9e 3c bf 3f 16 3c 62 21 ea bc 95 13 00 3d
       0.01938882 0.009170472 -0.028580371 0.031268675

sequential/lstm/while/lstm_cell/MatMul_11 f4 [256, 64]
000000 4f 42 2e bc f7 a2 62 3d ee 5d dc 3c 26 9b 8e 3d
       -0.010635926 0.055331197 0.026900258 0.06963186
000010 23 26 1e bc 82 d1 da bd 8c 99 03 be 35 d9 c5 3d
       -0.009652647 -0.10684492 -0.12851542 0.096605696
000020 de d8 cb bb 19 ae d5 3d 2f f9 1a 3d 78 64 23 bd
       -0.006220921 0.10433597 0.037835296 -0.039890736
000030 8b d8 5e bd 81 47 ff bb 41 b5 4a be ee 40 b7 bd
       -0.05440573 -0.0077905064 -0.19795705 -0.08947931
000040 63 b3 eb bb 65 a0 78 bd 48 84 1a 3d a2 a3 05 3e
       -0.0071930154 -0.06069984 0.03772381 0.13050702
000050 b8 be 2c 3c 40 42 72 3d ac 1b 61 bd 6b c3 fa bc
       0.010543518 0.059145212 -0.05495803 -0.03061076
000060 31 1a e5 ba 11 a2 ac 3d fa 39 25 be 5b 72 81 bd
       -0.0017479119 0.08429349 -0.16135398 -0.0632064
000070 51 7a 36 3d ee 84 64 3c 83 e8 fa 3d ea 8f cf 3d
       0.044550244 0.0139477085 0.12251379 0.10134871
000080 a2 3e ab bd c5 1a 0a 3e fe c1 9b bd e3 9f 2e 3d
       -0.08361556 0.13486774 -0.076053604 0.04263295
000090 00 ea 6d 3d 5d a5 22 bd 8f 69 53 bd 2e 61 1f be
       0.058084488 -0.039708484 -0.05161434 -0.15564415
0000a0 1c d0 96 bd 5a 59 c2 3c c1 d4 76 3d 64 0d 68 bd
       -0.073639125 0.023724247 0.06026149 -0.056653395
0000b0 e9 d1 4e 3d 73 77 87 bc ab 2e c6 3d 8a 1b 30 be
       0.050493155 -0.01653645 0.0967687 -0.17198005
0000c0 e2 c7 de bd 34 7c 2c 3d 5a 69 28 3c e1 ea b4 3d
       -0.10877968 0.042110637 0.010279024 0.08833862
0000d0 80 29 79 3d 4b cb 9e 3d 2f 90 cc 3c 2d 81 d6 3d
       0.060830593 0.07753619 0.024971096 0.10473857
0000e0 6f 58 29 ba c4 8e df bd 99 84 22 bd 9d 15 94 3c
       -0.0006460016 -0.10915902 -0.039677236 0.018076712
0000f0 f2 01 da bd 3b a4 7f bd d2 81 ca 3c 2e cf 07 3e
       -0.10644902 -0.06241248 0.024720106 0.13262627
000100 18 5e 56 3d 53 e8 23 3d b1 d9 97 3d 5f 02 a4 3d
       0.05233583 0.040016484 0.07414568 0.08008265
000110 0e 35 f0 bd 51 34 a5 bc c4 5f ad 3c 56 c9 b9 3d
       -0.117288694 -0.020166548 0.021163829 0.09071605
000120 f4 28 35 3e 0c cb 40 3d 14 d4 ba bd 36 8e 07 bd
       0.17691404 0.04706864 -0.09122482 -0.033094607
000130 5b 94 cc bd 78 eb dd 3b 62 94 66 3c 61 c2 14 be
       -0.09989234 0.006772455 0.014073463 -0.14527275
000140 42 42 b3 3d bf 14 39 3d 03 76 e1 3d 1b 68 5f 3d
       0.08752872 0.0451858 0.11008837 0.054542642
000150 f4 94 71 bd a8 ea c3 bd f5 bd cf 3d 2c d9 f3 3b
       -0.058979943 -0.095662415 0.10143653 0.0074416604
000160 94 9f 26 bd 18 27 aa bb 5d 09 c7 bb fc c7 07 3d
       -0.04067953 -0.0051926486 -0.0060741142 0.033149704
000170 dc ad c5 bc 54 9d 9c bc 0f 31 22 3d e7 5c d2 bd
       -0.024130754 -0.019117989 0.039597567 -0.10271626
000180 32 4c c5 3d 66 e1 13 3d 6f 6e e9 3d d3 d4 5b bc
       0.09633674 0.03610363 0.11398017 -0.0134174405
000190 38 eb 7f bd 0c 68 bf bc c6 ee 21 be 5c e1 3b 3d
       -0.06248018 -0.023365043 -0.15813741 0.045869216
0001a0 ca cb 1a 3e 3e 05 b2 bd e0 02 ed bb 4b 50 0d be
       0.15116802 -0.08692406 -0.0072330087 -0.1380016
0001b0 5f 64 b0 3c d9 75 d7 3c 30 00 90 bd 67 a9 65 bd
       0.021532236 0.026301311 -0.07031286 -0.056069758
0001c0 d7 b0 8c 3d f6 35 d0 3d fa 53 a7 3d f9 d0 c5 bd
       0.06869667 0.10166542 0.08170314 -0.09658999
0001d0 6b 46 3f 3e 6e 77 98 bd aa 43 32 3e 1e 67 91 3d
       0.18679206 -0.074446544 0.17408624 0.07099746
0001e0 0d 7a 4f bc 85 49 40 be 69 92 95 3b 0b a3 25 bd
       -0.0126633765 -0.18778045 0.0045645726 -0.040438693
0001f0 14 6b 19 be f5 d6 1b bd 98 bd 1f bd 48 46 b6 3d
       -0.14982253 -0.038046796 -0.03899917 0.08900124
000200 0e fb 9a 3b fc 1c b9 bc 91 f0 ea 3c ec 8f b1 bd
       0.004729635 -0.022596829 0.028679164 -0.08670029
000210 8e aa 97 3c 06 fd 97 3d b0 78 ba bc d7 c6 fe 3c
       0.018513944 0.07421307 -0.022762626 0.031100674
000220 79 5f 5e 3d 99 e2 44 3d 76 79 9b 3b cb b2 03 bd
       0.05429027 0.048067663 0.004744704 -0.032152932
000230 95 fc d6 3c 46 58 27 be 8e 63 dd 3c 40 30 a8 3d
       0.026243487 -0.16342267 0.02702501 0.08212328
000240 91 8f 60 3d 62 9a bc bd a5 4e e1 bb 7d fe 40 3d
       0.054824416 -0.09209134 -0.0068758302 0.0471177
000250 39 a5 b6 3d a1 59 75 bb c9 be 17 bd 5f 77 90 bb
       0.089182325 -0.0037437456 -0.03704718 -0.0044087614
000260 d7 dc e0 bb 7e b8 4e bd 2d fa b3 bd de 21 c9 3c
       -0.0068622637 -0.050468914 -0.087879516 0.024552282
000270 63 1e 90 3d 0f f8 ca ba 27 ad d2 3c 3c 10 63 bd
       0.07037046 -0.0015485304 0.025717331 -0.055435404
000280 43 c1 d6 3d 36 4d a7 bd 53 ff 80 3c 1b 17 99 3d
       0.104860805 -0.08169024 0.015746748 0.0747511
000290 d9 6e ac 3c ff fc 2f 3d 55 29 88 bd 9a 03 13 3e
       0.02104895 0.042965885 -0.066485085 0.14356843
0002a0 65 21 42 3c 90 a2 d8 bd 3b e8 a2 3d b4 09 01 3d
       0.011848782 -0.10577881 0.07954451 0.031503394
0002b0 38 9d ab 3c b4 95 85 bd ce 0d 0e 3d c0 ab 7e 3d
       0.020948991 -0.06522694 0.034681134 0.062175512
0002c0 ad 71 cd bd 6d e5 97 bc 90 7d 27 bd 79 f4 4e 3d
       -0.100314476 -0.018542016 -0.04089123 0.050526116
0002d0 cb c6 78 3d 92 e3 8a bb a3 2c 03 3c c8 86 4c 3c
       0.06073646 -0.0042385543 0.008006248 0.012483306
0002e0 ed 4c 13 3e db 04 bc bd c6 f1 23 3e 47 3a d8 3c
       0.14384814 -0.091806136 0.16010198 0.026394976
0002f0 52 cf d4 bc 9e 53 98 3d b5 40 d0 bc 5d 2a 6d 3d
       -0.025977764 0.07437824 -0.02542148 0.05790173
000300 36 75 98 3c 07 68 9a be 05 8d 23 bd 52 ae f5 3c
       0.018610578 -0.30157492 -0.03992941 0.029990349
000310 7d cc 01 be 96 99 99 3b 43 57 27 bd 74 b0 f4 bd
       -0.12675662 0.0046874983 -0.040854704 -0.11947718
000320 15 71 c8 bd 87 0e 07 3e 8f 09 05 3c 23 e3 b0 bd
       -0.09787194 0.13189135 0.008119955 -0.08637073
000330 c0 ba 1e 3e a0 1b 60 bd 7c da f2 bd 86 8b db bc
       0.15500927 -0.054713845 -0.11858079 -0.026799928
000340 bc fb 48 3d 0f 54 bc bd 0d ca 7b 3d 18 15 86 3c
       0.049068198 -0.091957204 0.061471988 0.01636748
000350 8b b6 9d bd 0b d8 47 bd de 9a 2b 3e ea 68 b7 bd
       -0.07700833 -0.04879002 0.16758296 -0.08955558
000360 da aa 6d 3c 84 76 4c 3d 07 53 8a bd 78 db 84 bc
       0.014506066 0.049917713 -0.067541175 -0.016217932
000370 09 ab e0 3d 51 40 6a 3c 5b 61 e3 3d b7 b8 73 3c
       0.10970122 0.014297561 0.111025535 0.014875582
000380 5b 7f b0 bd 78 4b ba bd c5 87 4a bd 17 14 e8 3d
       -0.08618041 -0.09096426 -0.049445886 0.11331957
000390 ed 21 01 bc be ab af 3c c5 ce 4f bc bc 9d 07 3d
       -0.007881624 0.021444198 -0.012683575 0.03310941
0003a0 05 80 32 3d 15 11 05 bb 20 30 d8 3d e0 97 70 bd
       0.04357912 -0.002030437 0.10556054 -0.05873859
0003b0 17 12 2e bc c5 1f d0 bc 7c ab 18 3d 6a 86 f8 bd
       -0.01062443 -0.025405774 0.037272915 -0.121350124
0003c0 1c 4f a5 3d 20 7a a0 3b 0b 0a 30 3b d4 9e 85 bd
       0.080717295 0.004897371 0.0026861455 -0.06524435
0003d0 cb 0d be bd 3e c7 1f bd 29 1e d3 bd 1d d5 28 bd
       -0.092799746 -0.03900837 -0.10308487 -0.041218866
0003e0 09 e2 bf 3d bb aa 70 3c 3e 80 e3 3a 19 55 9a 3c
       0.09369285 0.014689143 0.0017356945 0.018839406
0003f0 8e 29 e6 3c ea 87 ae 3d 30 f2 7a 3c c1 63 61 bc
       0.028095987 0.08522017 0.015316531 -0.013756693

sequential/lstm/while/lstm_cell/MatMul f4 [256, 225]
000000 80 7b d0 bc 92 6b d2 bb 4b f4 5a bd 51 0b af bd
       -0.025449514 -0.006421515 -0.053455632 -0.0854708
000010 a3 73 12 be 8b 05 02 3f 6c 2b aa 3d 34 75 53 bd
       -0.14301924 0.5078971 0.08309063 -0.051625445
000020 41 d9 70 3e aa ca 15 3e 11 99 4a be f4 53 00 3e
       0.23520376 0.14628091 -0.19784953 0.12532026
000030 31 12 23 3e 54 aa 7b bd 13 d1 30 3e f6 29 da 3d
       0.15924908 -0.061441734 0.17267255 0.10652535
000040 06 18 c0 bd a7 1c 86 3d c7 21 87 3d 56 0f 7d be
       -0.09379582 0.06548434 0.065982394 -0.24712881
000050 ca ee 0c 3b b3 ab 27 3e 74 bc 4b be fa 30 84 3e
       0.0021504634 0.16374092 -0.19896108 0.25818616
000060 f2 5b 37 3e 97 04 4a be 3c 87 92 3d 7d d3 14 bd
       0.17906168 -0.19728313 0.071547 -0.036334503
000070 b5 b8 bd bd d1 85 4f 3d 87 cb e4 3d 06 e0 71 bc
       -0.09263746 0.050664727 0.11171632 -0.014762884
000080 33 7d b7 3d 86 f7 2d 3d 83 5f a8 bd 6b 27 03 3e
       0.08959427 0.042472385 -0.082213424 0.12808006
000090 3a c6 e7 bc 5f 77 d2 bd 94 77 99 3e 65 92 f0 3d
       -0.028292764 -0.102766745 0.29974043 0.117466725
0000a0 8c fe ab bd da c9 fe 3d 92 cb 71 3b e4 e9 1f be
       -0.0839816 0.12440844 0.003689502 -0.15616566
0000b0 68 42 1a 3e 65 21 9a bd f3 b9 82 bd 2a ec 1d 3e
       0.15064394 -0.07525901 -0.06383123 0.1542212
0000c0 f6 c7 e9 bc 37 79 22 bd bc bd 82 3e bf be eb bd
       -0.028537732 -0.03966638 0.2553538 -0.11510991
0000d0 70 21 b1 3d b2 b5 95 3d 8d 2b f3 bd d3 f9 16 bd
       0.08648956 0.07310046 -0.11873541 -0.036859345
0000e0 b5 9a 18 3e b6 bb 4a bc ed cb eb 3c 1c a5 7b 3e
       0.14902766 -0.012373855 0.028783763 0.24574703
0000f0 46 a1 d2 bd d8 10 d1 bd dc 28 a3 3e 4e 29 b0 bc
       -0.10284667 -0.10208291 0.3186711 -0.02150407
000100 51 7e 7f 3c 48 97 a9 bd 29 87 93 3c b6 75 2f 3e
       0.015594081 -0.08280808 0.018008785 0.17134747
000110 ac 71 84 3e a9 38 b4 bd 82 8a 02 3e ea 2e 80 3e
       0.25867975 -0.087998696 0.12748149 0.25035793
000120 1a 3b 02 3d 03 3a d1 3b 46 45 ca 3d 50 16 1e 3d
       0.031794645 0.0063850894 0.09876494 0.038595498
000130 c6 15 34 3b 97 63 12 3e f1 be b9 3c af bf 7a 3d
       0.0027478798 0.14295803 0.022674056 0.06121796
000140 8d d7 e4 3e 4f b0 17 3d f4 0e 94 3c 0c 25 a5 3e
       0.44695702 0.037033375 0.018073536 0.32254827
000150 4a ed b6 bd 44 88 1c bd 49 96 50 3e 94 e3 3b bd
       -0.08931978 -0.03821589 0.20369829 -0.045871332
000160 25 da 4c 3c 8c 24 b5 3d e9 3e e4 bd 67 3b 1e bd
       0.012503182 0.088448614 -0.11144812 -0.03863087
000170 ff 11 4d 3e 7c e4 ad 3d af cf ea bc 17 7a ba 3d
       0.20026396 0.084908456 -0.028663484 0.09105318
000180 4e 10 cd bc 60 92 83 bd 92 57 af bd eb 82 85 3d
       -0.025032189 -0.06424403 -0.085616246 0.06519111
000190 22 f2 00 3e d5 ad c2 3c c2 f4 80 3b 4d 96 53 3d
       0.12592366 0.02376453 0.0039354274 0.05165701
0001a0 e7 e9 41 3e a8 1d 24 3c 2f 32 04 3e 3e 57 6e 3d
       0.18936883 0.010016836 0.12909769 0.05818867
0001b0 5d 0d ce 3d 67 3d 67 3d c5 84 59 be c3 36 37 bc
       0.100611426 0.056455042 -0.21242054 -0.01118249
0001c0 4b 40 f6 3d 42 81 26 be 5b b3 04 be fb 84 9e 3d
       0.12023982 -0.16260245 -0.12959044 0.07740208
0001d0 db f5 f0 bd 24 64 70 3d b7 d2 03 3e 94 64 21 be
       -0.11765643 0.05868925 0.1287335 -0.15761024
0001e0 f3 60 e7 3d 68 ee cd 3d d5 c2 7c be 1e 2e 28 bc
       0.112977885 0.10055238 -0.24683698 -0.010264901
0001f0 a4 d6 2c bb b7 27 7e be 08 fe 02 3e 73 02 5f 3d
       -0.0026373053 -0.24819838 0.12792218 0.054445695
000200 fe 35 e5 3c 2f 75 b8 3d dd f6 6d bd 32 ad 15 3d
       0.027979847 0.09006726 -0.058096755 0.036542125
000210 e0 1f c3 3d df 18 d5 bd 86 33 ab ba 0b 8e bc bb
       0.09527564 -0.104051344 -0.001306162 -0.0057542375
000220 64 d8 a4 bd b8 e8 42 3d 6b 51 e5 3d 2a 8b 1d bd
       -0.08049086 0.04758522 0.1119717 -0.038462795
000230 59 3a 5f 3c 7c e6 b1 3c 9c a7 88 ba 23 13 52 bc
       0.013624751 0.021716349 -0.0010425928 -0.012821945
000240 e6 6b a1 bd e0 54 06 bd 8d e6 a5 3d fc fe a5 bd
       -0.07881908 -0.032795787 0.08100615 -0.08105275
000250 44 59 93 3b 2b 65 1f be 40 3f 7d 3d 54 da 3b bc
       0.0044967253 -0.15565936 0.061827898 -0.011465628
000260 34 f6 3a 3d 98 ed 36 3d 69 14 fb bd c4 1a 40 3d
       0.045644954 0.04466018 -0.12259752 0.046900526
000270 a2 b0 8f 3c 7c f5 5e bd a6 3c c4 bd 30 c0 fb bb
       0.01754028 -0.05443333 -0.0958188 -0.0076828226
000280 82 29 78 3c d6 cd 4a be 31 b4 fa 3c 08 62 33 3d
       0.015146615 -0.19805083 0.0306035 0.04379466
000290 f2 d8 a5 bd 31 ab a9 3c e9 c4 c7 bc ed 79 86 bd
       -0.0809802 0.020711513 -0.024385886 -0.06566224
0002a0 33 ab bd bd 31 d9 b9 bb 1f 89 a4 bc 9c 49 6f bc
       -0.09261169 -0.005671643 -0.020084916 -0.014604952
0002b0 aa ca 97 3d b1 5d 70 3c ce 46 21 be 98 8b 8c bc
       0.07411702 0.014670775 -0.15749666 -0.017156407
0002c0 af bc c6 3d 33 50 87 3d 52 56 03 bd 72 d5 ff 3d
       0.09703957 0.06607094 -0.032064743 0.12491883
0002d0 f5 64 24 be 9d 9b 0d 3d f7 9d 1d bd 54 d0 ba 3d
       -0.16054137 0.034572233 -0.038480725 0.09121767
0002e0 c6 23 b0 bc 58 5f b8 bc 1c 0f 92 bc d1 25 dc 3d
       -0.021501433 -0.022506401 -0.01782947 0.107494004
0002f0 8c a1 33 3d 3b 15 28 bc a2 7f ab bc cb 53 c9 3d
       0.043855235 -0.010258968 -0.020934884 0.09830435
000300 b7 f4 f0 bd d1 28 48 3d c3 0d ef bc 33 71 8a 3d
       -0.11765426 0.04886705 -0.029181367 0.06759872
000310 80 79 92 3d 44 bd ac 3e 56 d5 90 3d 37 ca 79 bb
       0.071520805 0.33738148 0.070719406 -0.0038114914
000320 c9 ac bf be d9 7f 6e bd 1b 2e ce 3d 29 fc 04 3f
       -0.37436512 -0.058227394 0.10067388 0.51947266
000330 45 c4 bb bd 5f 75 d7 bd b9 49 0b 3e b7 58 9e 3d
       -0.09168295 -0.10520434 0.13602342 0.07731765
000340 f2 d3 be 3d 8a 41 6a 3d 6a 9f 0a bd 84 8f 4c bd
       0.09317769 0.05719141 -0.033843435 -0.049941555
000350 b7 08 cc bc 2e 6f 63 bd 5d d7 a5 3c 4d 72 21 3e
       -0.0249065 -0.05552595 0.020244295 0.15766259
000360 5b 69 c8 bc cf a0 a1 bd ef 55 15 3e cc 95 99 bd
       -0.0244643 -0.07892 0.14583562 -0.074992746
000370 38 0e ac bd 99 29 09 3f 76 3f b3 3c 3e cf 86 bd
       -0.084011495 0.535791 0.021880846 -0.06582497
000380 0c 17 3d 3c af db 77 bd ae 8c b1 3d a3 bc 96 3d
       0.011541139 -0.06051224 0.08669411 0.07360198
000390 1d bb 0c bd 72 70 86 3d d9 5c c1 3e d6 3f 2f bc
       -0.034358133 0.06564416 0.3776615 -0.010696372
0003a0 7e bc 24 3c 83 aa 6c 3e a9 ed 1e bd 6d b8 d8 bc
       0.010054706 0.2311192 -0.03880087 -0.026455129
0003b0 31 a5 6e 3e 35 ae f9 3c 6c a9 f8 bc 40 7a ff 3d
       0.23305203 0.030478576 -0.030354224 0.12474489
0003c0 35 c4 26 3c 81 a7 90 3c b5 20 05 bf ea 3a 9e 3d
       0.010178615 0.017657997 -0.5200303 0.07726081
0003d0 af ea c5 bd 23 29 91 be 0e bd 23 bd d6 46 12 bd
       -0.09663903 -0.28351697 -0.03997522 -0.035712086
0003e0 c4 f3 51 be aa f0 50 3d 02 27 9d bc 5f 64 57 be
       -0.20503145 0.051010765 -0.01918364 -0.21034382
0003f0 62 6b 00 bd 78 6a 8c 3d 38 88 9f be c6 47 bd 3d
       -0.03135241 0.06856245 -0.31158614 0.09242205
